model.pth (torch, 195015 bytes, 6 tensors)

weight f4 [16, 1, 3, 3]
000000 24 cd 57 3e 24 78 69 3e 33 19 53 be 83 6c 9e bc
       0.21074349 0.22799736 -0.20615081 -0.019338852
000010 fc b5 84 be 5d 63 1d 3e a0 ea e7 3d 13 fd 82 be
       -0.25920093 0.15369935 0.11324048 -0.25583705
000020 e2 7a a0 be 73 6f 6c be 0e 1b cc 3d b8 b8 65 3d
       -0.31343752 -0.2308939 0.09966098 0.056084365
000030 94 aa cd 3d fd 59 32 be 99 23 6f 3e 9d cb 62 be
       0.10042301 -0.1741714 0.23353423 -0.22147985
000040 2d 97 d7 3d df 19 68 3e 00 d9 ee bd f0 06 31 be
       0.10526881 0.22666119 -0.11662483 -0.17287803
000050 26 4f c3 be 89 f1 65 bc 63 8c a8 be 15 c0 af 3d
       -0.38146323 -0.014034637 -0.32919607 0.085815586
000060 a6 49 3f be 69 37 8d 3e 14 40 81 3e 26 1a b8 3c
       -0.18680438 0.27581337 0.252442 0.022473406
000070 a4 3e 87 3e 45 49 07 be 2c 57 bd be f0 30 86 3e
       0.26414979 -0.13211544 -0.3698057 0.2620921
000080 ed 91 95 3c bb 0b eb 3d 1c 97 0d bd d9 aa 80 3e
       0.01825806 0.11476847 -0.034567937 0.25130346
000090 9e d5 0f 3e 0d 16 88 3e 2f 18 70 bd be 80 dc bc
       0.14046332 0.26579323 -0.058616813 -0.026916858
0000a0 39 6c c9 3c b3 99 eb 3d 45 b2 e4 3d 31 bd 73 3e
       0.024587737 0.11503925 0.11166815 0.2380264
0000b0 98 98 86 be cb f5 88 3e a0 18 1c be fc f7 5c 3d
       -0.26288295 0.26750025 -0.15243769 0.053947434
0000c0 a4 7f a5 bd a3 b0 95 be 69 0c af be a8 52 e0 be
       -0.08080986 -0.29236326 -0.34189156 -0.43813062
0000d0 c9 1f 12 bf 0c 15 df bc ca 15 c0 be 8b d0 e8 bd
       -0.5707975 -0.027231716 -0.37516624 -0.113679014
0000e0 eb ed f4 3d 5b 7b 3f 3d 75 3c b4 be 41 10 47 be
       0.11959442 0.0467485 -0.35202375 -0.19439794
0000f0 8b 46 d8 bc 89 d0 97 3d 41 85 11 3d a8 bf 28 be
       -0.026400825 0.07412822 0.03552747 -0.16479361
000100 63 91 23 3e 7d 71 1e 3e dd 9c 84 3e 8b 8d ed 3d
       0.1597343 0.1547298 0.25900927 0.11599263
000110 23 97 ac be ca b1 61 3e a9 4f 82 3e 1c bd 30 3e
       -0.33709058 0.22040477 0.254514 0.1725964
000120 c2 a8 8f 3d 23 86 86 3e d3 88 6f be af 8b 8f be
       0.0701461 0.26274213 -0.23392038 -0.28036258
000130 ba cd 30 3e cd 2e 91 3e b6 fc e9 bc b6 42 9a 3e
       0.17265978 0.2835602 -0.028562885 0.3012902
000140 b8 c9 7e 3e 18 39 fa 3d d5 8c 88 be 7f 69 a5 be
       0.24881637 0.12217921 -0.26669946 -0.3230705
000150 01 e6 38 be 0e 08 7c 3d 3d b4 72 3e 6d 40 0d 3e
       -0.1805649 0.06153112 0.23701568 0.13794108
000160 5b 70 82 3e fe b5 7b be 34 d7 18 be 2d b9 ab be
       0.25476345 -0.24581143 -0.14925843 -0.33539715
000170 74 d6 24 3d 52 5f b4 3d b6 4d 0b be c6 7a 13 3e
       0.04024358 0.088072434 -0.13603863 0.14402303
000180 74 0f 79 3e 8c 47 c0 bc 9e 61 7b 3b 2d 4c 6b 3e
       0.24322301 -0.023471616 0.0038357745 0.22978278
000190 53 1d 54 3d 41 29 7e 3e 0c 65 71 3e 01 ae 91 3e
       0.05178578 0.24820425 0.23573703 0.28453067
0001a0 40 37 90 3e 53 b1 5f 3e 98 19 f4 3d 7a 9b dd 3d
       0.28167152 0.21844988 0.11918944 0.108206704
0001b0 c7 b3 c9 3d de 3e 34 3e 2f dd 54 be fc 1e 5f 3e
       0.09848743 0.17602107 -0.207875 0.21789163
0001c0 b8 2f 96 be 64 b7 84 3c 20 6c 89 3e 9b 8b d5 bc
       -0.29333282 0.016200729 0.26840305 -0.026067546
0001d0 40 7e 6e 3e a5 2c ce be d7 3e 58 3c fb 9d 56 be
       0.23290348 -0.40268436 0.013198576 -0.20958702
0001e0 9d 31 2a bc 58 fe 65 be d9 88 5f 3e e8 c2 9c 3d
       -0.010387805 -0.22460306 0.21829547 0.07654363
0001f0 de 2d 32 3d 45 94 4e be 70 48 14 be 55 82 11 3e
       0.043500774 -0.20173748 -0.14480758 0.14209874
000200 36 dd 6d 3c c4 1b 2d 3d ee 61 8c 3e 4e a8 b0 3d
       0.014518073 0.042262807 0.27418464 0.086258516
000210 b1 44 a4 3d 68 b8 84 3e 88 30 a4 3e a1 c3 89 3e
       0.08020914 0.2592194 0.32068276 0.26907066
000220 15 ab 44 3e b5 c8 6a 3e da 5f b0 be 60 b3 ba 3d
       0.19205888 0.22928126 -0.3444813 0.09116244
000230 84 85 83 bd 5b 51 56 3e 4e 07 12 3e da be 72 3e
       -0.064219505 0.20929472 0.14260599 0.23705617

bias f4 [16]
000000 18 c3 ec bf 40 b8 ce bf 7a 17 02 be fd e2 5c 3e
       -1.8497038 -1.6149979 -0.12704268 0.21570964
000010 23 8f cb be c6 cd ca 3e bf 5c 2c 3f 2e 5e e6 bf
       -0.39757642 0.39610118 0.6732902 -1.7997491
000020 43 31 1e be cf 24 12 c0 67 64 bb 3e d9 88 67 bf
       -0.1544848 -2.2834966 0.36600038 -0.9044319
000030 10 93 ca bf 78 15 24 3f be 71 f5 3c 4b 22 9b bd
       -1.582613 0.6409526 0.029961463 -0.075749

weight f4 [32, 16, 3, 3]
000000 7f 71 e5 bc 2f 09 2c bd a4 1a 38 3d 3b d1 18 3c
       -0.02800822 -0.042000946 0.04494728 0.009327228
000010 e4 44 3e 3d 36 1e 6d 3d c5 6f e9 bb 5e eb 0b 3c
       0.046452418 0.05789014 -0.0071239197 0.008540003
000020 45 6b 9d ba 93 c4 aa bd 9c 6c 00 3d 58 31 54 bd
       -0.0012010118 -0.08338275 0.031353578 -0.05180487
000030 da 1d 9f bc 71 12 52 3d f0 9b ae bd 1a 51 6b 3d
       -0.019423414 0.05128712 -0.085258365 0.05745039
000040 da 5e 55 3d c8 b3 37 bd 3c 10 bc 3c 3e 20 cf bc
       0.05209241 -0.044849187 0.02295696 -0.025283929
000050 b8 40 94 3c 41 d0 9c bc b5 ec 97 bd 53 3f 51 3d
       0.018097267 -0.019142272 -0.07418195 0.05108578
000060 74 79 7d bd a0 bb 07 3d e0 99 68 bd 94 a2 07 bd
       -0.061883405 0.033137918 -0.05678737 -0.03311403
000070 71 22 9d bc 27 28 a5 bd 33 11 e1 3c 01 af 4e bd
       -0.019181462 -0.08064299 0.027474022 -0.050459865
000080 d7 ed 04 3c 43 8f 60 bd 6c f3 a4 bd 3d 9e 72 3a
       0.008113346 -0.054824125 -0.080542415 0.0009255147
000090 cd 94 97 bd fe c1 ce bd 7b 5e 84 bc de 57 f7 bc
       -0.07401428 -0.10095595 -0.016158333 -0.030193266
0000a0 10 ab 5d 3c 8e 40 7b bd a4 ca 39 bd 47 d5 a8 bd
       0.013529554 -0.06134086 -0.04535927 -0.082438044
0000b0 27 04 29 bd 61 11 42 3d 07 09 8b 3c 5f 3e 38 3c
       -0.041263726 0.047379855 0.016972078 0.011245339
0000c0 c3 70 e8 3b 55 38 fe 3c b5 1b ce bc 3f fb 51 bc
       0.0070935204 0.03103272 -0.025159696 -0.012816249
0000d0 54 4f 90 3d ea 4a 58 bd c2 70 d2 3c 56 83 88 bc
       0.07046381 -0.05280582 0.025688533 -0.016664188
0000e0 9d 5a 4b 3c 1b cd 73 bc 86 78 c4 3c cc 5c 9a bd
       0.012411741 -0.014880444 0.023983251 -0.07537231
0000f0 17 1a 7b bd d1 7f 8f 3d 38 46 54 bc 1f 30 95 bd
       -0.061304178 0.07006801 -0.012956195 -0.07284569
000100 38 8d c5 3b e2 30 53 bc e0 c8 40 3c 15 a5 e5 3c
       0.0060287975 -0.012890073 0.011766642 0.028032819
000110 16 ac 9e bc f1 a2 5c bc 6e 77 16 bd 38 ee 4a bc
       -0.019369166 -0.013466583 -0.03673499 -0.012385897
000120 f3 c5 31 3d b6 59 91 3c d5 79 94 bc 2b 1f 76 3d
       0.04340167 0.017742973 -0.0181245 0.060088318
000130 bf af 2e bd 17 17 2e 3c a7 f0 d4 bd ef 7a 45 3d
       -0.042648073 0.010625622 -0.10397463 0.04821294
000140 4e c0 35 bd d9 c4 bb bb 0a aa f0 bb 50 c9 ae bc
       -0.04437285 -0.005730253 -0.007344489 -0.021336228
000150 e4 f8 a7 bb 0a 8f ad bd 1d a1 72 3d dc f7 05 3d
       -0.0051261056 -0.08474548 0.05923568 0.03270708
000160 41 6f e1 bc 47 bb c1 bd 16 ec ff 3b d7 45 04 bb
       -0.02751887 -0.094595484 0.007810126 -0.002018323
000170 db 34 8b bd 41 d8 9d bd 20 fc 12 bd 06 41 2e 3c
       -0.06797191 -0.07707263 -0.035884976 0.01063562
000180 ed c8 de bc 52 48 6a bd f7 b6 47 bd bc 6e c0 bd
       -0.027195418 -0.057197876 -0.048758473 -0.09396121
000190 ea 8f 1f 3d 33 af 4b 3b c1 39 59 bd 0b 10 ee 3c
       0.038955607 0.0031079769 -0.053033594 0.029060384
0001a0 9a 1c b0 bd b4 3e f9 ba 68 d8 ef 3c 30 ab c7 3c
       -0.08599205 -0.0019015879 0.029277995 0.02437362
0001b0 70 e7 84 3d 41 53 d2 bc 18 e6 e7 39 c5 43 4c bc
       0.06489456 -0.025674464 0.00044231187 -0.012467329
0001c0 ca 51 3d 3d cb 2d 99 bd ad f8 c7 3c 9a 64 c1 bc
       0.04622058 -0.074794374 0.02441057 -0.02360754
0001d0 3e ea 33 3d ea 3d 31 bc 35 bc f1 bc d9 2e f3 bc
       0.043924563 -0.010817984 -0.02950869 -0.029685425
0001e0 c4 37 91 3c 01 6c 5c bc f8 c5 8a bb 09 b5 1b 3d
       0.017726786 -0.0134534845 -0.0042350255 0.038014445
0001f0 44 63 c7 bd 44 ce 47 bd 57 8e 9c bd 8c 34 26 bb
       -0.0973573 -0.048780695 -0.07644337 -0.002536091
000200 2f 58 7e bd 6c 73 3e 3c 00 96 3d 3d bc d2 3e bd
       -0.062095817 0.011624198 0.04628563 -0.04658769
000210 a3 38 25 3d b4 7c b6 bd 0c 8c 31 3d f1 b1 00 3d
       0.040337216 -0.08910504 0.04334645 0.0314197
000220 0f 53 c9 3c d3 4c 2a 3d 69 2a ba bd 8b f7 80 3c
       0.024575738 0.04157717 -0.0909012 0.015743038
000230 16 df 32 3d 89 5a ce bd a6 14 20 bd 9f 3f f2 3c
       0.043669783 -0.10075862 -0.039082192 0.029571353
000240 66 3a b8 bd d1 1f 78 bd c1 fa cc bd fb a9 d5 bd
       -0.089955136 -0.060577217 -0.10008765 -0.10432812
000250 a4 eb a0 bd b9 b6 ca 3c de 07 3a bd 9d 9d 18 bc
       -0.07857445 0.024745332 -0.04541766 -0.009314922
000260 b3 8d 93 bd 71 9f 9f bb db d9 e5 bb 55 43 38 3d
       -0.07204761 -0.004871302 -0.007014496 0.044986088
000270 ad cb 82 3c 08 f7 b0 bd 7d 2f ab bd de 12 aa 3d
       0.01596626 -0.086408675 -0.08358667 0.0830438
000280 ef 09 ae bd 68 92 c4 3c 00 a2 88 3c b4 89 4f bd
       -0.084979884 0.023995593 0.01667881 -0.050668433
000290 26 93 49 3d e3 7d f3 ba 1c 5e b7 ba f4 41 4d 3d
       0.049212597 -0.0018576946 -0.0013989839 0.050111726
0002a0 1d 17 64 bd f4 32 77 3d 07 6d bd bc 7f c8 79 3d
       -0.055686105 0.060351327 -0.023123277 0.060982224
0002b0 48 2a 9a 3d d4 94 ef 3c 4b 82 f6 3c 38 d4 a3 bd
       0.07527596 0.029245771 0.030091425 -0.07999462
0002c0 36 ed 27 bc 02 36 11 bc 3b de c9 3d 69 0e c7 3c
       -0.010249427 -0.008862974 0.0985684 0.024298863
0002d0 e7 c8 59 3d ae 74 0c 3c 1a 2a 89 bd 96 92 c5 bc
       0.05317011 0.0085727405 -0.06697483 -0.02411775
0002e0 c4 4f a3 bd 59 49 4c 3d 1f a1 0a bb 45 a7 89 bd
       -0.079741985 0.049874637 -0.0021153165 -0.06721357
0002f0 b2 0d 80 3c 3f 03 88 3d 00 9e bf 3d 72 9c 28 3d
       0.01563153 0.06641244 0.09356308 0.041164823
000300 bf ab 71 3e b7 52 46 3e 1b 9d 9f 3d a1 c8 01 3e
       0.23600672 0.1936749 0.07793637 0.1267419
000310 b8 ab 8e bc c3 63 70 bc 73 f0 a0 be 1f b3 72 be
       -0.017415866 -0.014672223 -0.31433448 -0.23701142
000320 23 61 02 be dc 80 8b bb 9e 29 f1 bc 6d ad c3 3b
       -0.12732367 -0.0042573046 -0.02943879 0.0059716017
000330 1e 3a 05 3e 71 c1 fc 3d 83 67 86 39 ca 17 8a bd
       0.13010451 0.123415835 0.00025635594 -0.06742819
000340 4b 84 2a bd 3c 8c 34 bd 9d fc ce bd bd 20 ac bd
       -0.04163007 -0.04407905 -0.10106776 -0.08404682
000350 4e e6 87 bc 3b 3e b5 bc 14 58 50 bd 7d 63 f4 bc
       -0.01658931 -0.0221244 -0.050865248 -0.029832596
000360 11 27 fe bc 95 81 37 3d fe f0 b9 bd 1f 3c 36 3c
       -0.031024488 0.044801313 -0.09079169 0.011122732
000370 95 6d 3c 3c fe e6 bb 3b 24 77 1c bd 69 d3 17 bd
       0.011500736 0.0057343235 -0.03819956 -0.03706685
000380 6b 56 3d 3d 13 22 d3 bd 14 49 b4 bd 11 c1 20 be
       0.046224993 -0.103092335 -0.08803001 -0.15698649
000390 0b f5 8d bd 3f e3 8c 3b 4e 13 a2 3d 81 59 21 3d
       -0.06931504 0.004299551 0.07913838 0.039392
0003a0 9a 3e cc bd cf 6c 24 3d 45 bb 47 be a1 79 0f be
       -0.09972878 0.04014283 -0.19505031 -0.14011241
0003b0 72 18 88 bd 8c 56 ea bd 55 db 28 bd a7 e4 b7 3d
       -0.066452876 -0.11442289 -0.041224796 0.08979159
0003c0 28 8d 3c 38 63 44 2c 3d d5 ed 54 3c c7 3b a7 bb
       4.4954155e-05 0.042057406 0.012996157 -0.0051035616
0003d0 b6 96 a0 bd ad 62 01 bd 9e 92 bf bd f2 17 c2 3c
       -0.07841246 -0.031588245 -0.09354137 0.023693059
0003e0 66 a9 e2 bc d7 e6 c8 bd 5b 33 8b bd ef 02 2e bd
       -0.027668666 -0.09809654 -0.06796905 -0.042483266
0003f0 7b 01 8b bd 79 40 b4 bd a0 46 1a 3b 39 54 0a be
       -0.06787392 -0.0880136 0.002354063 -0.13508691

bias f4 [32]
000000 80 0f 2d 3e 8f 51 9b 3e 4b dd 2f 3e 5b 02 1c 3e
       0.16900444 0.30335662 0.1717426 0.15235274
000010 f0 02 2c bd e8 58 d2 3d ba 43 d4 3e 65 4d b8 bd
       -0.04199499 0.10270864 0.4145792 -0.08999137
000020 6e 9c 2b bc df a9 0b 3e cf 49 8c 3d 7d 02 26 3e
       -0.010474307 0.1363902 0.06850015 0.16211887
000030 85 1a 30 3e 0c 5a cd 3d 02 e2 2e 3c 87 76 23 3e
       0.17197616 0.10026941 0.010674002 0.15963183
000040 d6 57 7e 3e 6a bc 5f 3d 8f cf 27 bd f1 76 f0 3a
       0.24838194 0.054623045 -0.040969428 0.0018345994
000050 29 06 bf 3e 9c 61 62 3c 2a f3 21 3e 28 44 8c 3e
       0.37309387 0.013817217 0.15815416 0.2739575
000060 6b a0 60 3e 70 56 bf 3e 08 e0 62 3d 42 8d 5e 3e
       0.21936195 0.37370634 0.055389434 0.21733573
000070 61 cd bb 3d 11 5f b8 3e 79 5d 93 3e 94 fc 84 bd
       0.09170032 0.3601003 0.2878225 -0.06493488

weight f4 [12, 3584]
000000 95 fa 53 3b d4 17 1b 3c fa 1d 34 bc 98 df 2a bc
       0.0032345403 0.00946613 -0.010993475 -0.0104292855
000010 c9 98 74 3c 45 4d af 3b 98 f6 79 bb 04 ea 0a 3b
       0.014929005 0.0053497874 -0.0038141366 0.0021196613
000020 47 18 8a 3b d7 36 cd 3b 95 04 b1 3b 3f e1 f5 3b
       0.00421432 0.006262641 0.0054021575 0.007503658
000030 db 23 72 bc 6f 3d 81 bc 56 64 27 bc 82 54 a3 bb
       -0.014779056 -0.015776364 -0.010216793 -0.0049844394
000040 dc 40 01 bc 27 9d a5 3c 80 0e 41 3c 0c 1f 7e 3c
       -0.007888999 0.020216538 0.011783242 0.015510332
000050 0e c5 71 3c ee bb bf 3c 2a 6d 90 3c 18 48 99 39
       0.014756454 0.023405042 0.017630178 0.00029236148
000060 ad 77 04 3c a7 d2 a8 3c 41 2b 46 3c 56 27 89 3c
       0.008085174 0.02060826 0.0120952735 0.01674239
000070 20 23 bc bb f2 e9 d4 39 06 8f 75 bb 8b b7 71 3c
       -0.005741492 0.00040610094 -0.0037469282 0.014753233
000080 16 6f 19 3c d8 f0 ee ba 05 94 a0 3b c9 12 c0 bb
       0.009364864 -0.0018229736 0.004900458 -0.0058616144
000090 31 9c d2 bb 43 ca 3e 3c 4d 55 12 3c df 13 33 bc
       -0.006427311 0.011644903 0.00893147 -0.010930031
0000a0 7b 7f 14 bc 55 0d f6 3c 66 31 59 3b c8 a0 e7 bb
       -0.009063597 0.030035654 0.0033141016 -0.007068727
0000b0 ee 3e 4f bc 0e 32 e3 3b 7c 01 9a bc 7a 0a cd 3a
       -0.012649281 0.006933457 -0.018799536 0.0015643381
0000c0 ac 3e f9 ba c1 ba cc bb fb de 47 bb 54 25 36 bc
       -0.001901587 -0.0062478487 -0.0030497897 -0.011117298
0000d0 55 37 4f 3b 60 e5 13 bc e6 62 53 3b 78 20 92 3b
       0.0031618674 -0.009026855 0.0032254993 0.004459437
0000e0 cb fb eb bb ac 07 8a 3c 3d d9 95 3c 38 12 b5 bb
       -0.007201647 0.016849361 0.018292064 -0.0055258535
0000f0 0b 1c 6b 3a 96 34 30 bc c0 ac 81 3b a4 49 ad bb
       0.00089687173 -0.010754725 0.003957361 -0.0052883197
000100 62 b0 df bb 6a 5c d7 bb 1c 88 a3 3b 6b b0 27 39
       -0.0068264464 -0.006572296 0.0049905907 0.00015992082
000110 31 99 12 3c 21 23 03 bc 3c 14 d0 bb 6e a5 07 3c
       0.0089476565 -0.008003981 -0.0063500684 0.008279188
000120 b5 27 71 3c 37 1a 22 3c 01 f2 70 bc 28 74 fe 3b
       0.01471894 0.009893945 -0.014706136 0.0077653117
000130 fd 85 eb 3a 28 11 7f bb 45 07 3a 3c 69 f3 1a bb
       0.0017969009 -0.0038920138 0.011354272 -0.002364362
000140 45 97 9c 3b e9 f0 2f 3b d6 67 94 3c c4 4d 6a 3c
       0.004778775 0.0026846475 0.01811592 0.014300767
000150 c1 81 59 bc a1 4f 1a 3c b6 ea 9b bb 55 20 9c 3c
       -0.013275565 0.009418399 -0.0047582043 0.019058386
000160 95 a3 13 3c aa 54 aa 3c 6b 49 b2 3c e7 4c ac 3c
       0.009011169 0.020792324 0.021763524 0.021032764
000170 4d ee 7e 3c 31 82 e9 3b 2d af 77 3c 70 3c 24 3c
       0.015559745 0.0071261157 0.015117449 0.010024175
000180 10 75 ac 3c 96 73 69 3c 11 13 81 bc f7 3f df bc
       0.021051913 0.014248749 -0.015756162 -0.02725218
000190 99 16 f3 b7 0c 0f 58 bc 62 32 30 3b 72 40 c5 bb
       -2.897838e-05 -0.013187181 0.00268855 -0.0060196454
0001a0 24 b6 8a 3b f7 5b 18 bc 3b d3 ab 3b 64 c5 a5 3a
       0.0042331386 -0.00929927 0.0052436865 0.0012647328
0001b0 f8 07 50 3a 74 93 5f 3b 16 44 73 ba d5 13 30 bb
       0.0007935758 0.0034114989 -0.000927986 -0.002686729
0001c0 1f e0 0c bd 1f 4a ba bc c9 34 a4 bc bf 66 b1 bb
       -0.034393426 -0.022740422 -0.020044701 -0.0054138596
0001d0 9b da b9 bb 73 e7 d1 bc 3e 01 e5 3b 1f 6c 5b bb
       -0.0056718118 -0.025623059 0.0069886735 -0.0033481193
0001e0 3c 0a c3 bc aa 42 fb 3b aa 9f d0 bc 91 77 fc 3c
       -0.023808591 0.007667859 -0.025466759 0.030818732
0001f0 45 41 77 3c ac cf f6 bc 76 5d 49 bb b3 7a 40 3b
       0.015091245 -0.030128323 -0.0030725873 0.002937001
000200 e5 35 2e 3c 1e 78 9d bb 0d a7 83 bc 0b c9 c7 bc
       0.010632967 -0.004805579 -0.016070867 -0.024387857
000210 66 c9 56 bd c6 8e bd bc d4 68 b8 bc cc a5 73 bd
       -0.052438162 -0.023139369 -0.022510923 -0.059484288
000220 26 db b4 bd f5 67 21 bd cc 2c 11 bc cc 6e 2a bd
       -0.08830862 -0.03940578 -0.008860778 -0.04160957
000230 91 a6 cd b9 aa 20 8f 3b 0c f1 e5 3c 0d db 1f 3d
       -0.0003922475 0.0043679075 0.028069042 0.039027262
000240 a8 8b 4a 3c 00 74 47 bb 34 8e 5e 3c 87 fb 1e 3d
       0.012362398 -0.0030434132 0.013583709 0.038814094
000250 73 c3 01 3d 94 ca 6a bc 70 c6 e4 ba 6f f0 43 3b
       0.031680536 -0.014330525 -0.0017454159 0.0029897948
000260 c7 35 3d 3d b2 00 a3 3d 78 ff 8e 3d 66 e3 1d 3c
       0.046193864 0.07959117 0.069823205 0.009636736
000270 53 7d 62 bc ca 60 df bc 20 38 30 bd 28 dc ca bc
       -0.013823825 -0.027267832 -0.043022275 -0.024763182
000280 cc 88 b5 bd 3e 5a 14 bd 7b fb a0 bd ec 93 10 bd
       -0.088639826 -0.036218874 -0.07860466 -0.03529732
000290 34 27 a7 bc 29 ab 58 be f7 be 5c be 5f 49 87 bd
       -0.020404436 -0.21159042 -0.21557222 -0.06605791
0002a0 3b 79 88 3d 17 c6 06 bc 96 4a fb bc d7 0f 5a bc
       0.06663748 -0.008225939 -0.030675214 -0.013309441
0002b0 86 5c 87 bc 90 93 64 bd 14 4b a4 bb c9 de 83 bd
       -0.01652361 -0.05580479 -0.005013833 -0.06438977
0002c0 48 1e 15 bc 34 ef 08 bc 56 ed 10 bb 50 c5 ea bc
       -0.009101458 -0.008357812 -0.002211412 -0.028658539
0002d0 9c bc 48 bd 3d c4 97 3b 85 a7 92 bc 0a df 2f 3a
       -0.049007997 0.0046315477 -0.017902145 0.00067089556
0002e0 92 a3 1d 3d 77 9b 11 3d 93 a4 7a 3d c8 49 4a 3d
       0.03848607 0.035548653 0.061192106 0.04938677
0002f0 f7 32 b6 3d a3 c3 b1 3d a7 39 c6 3c 18 87 ef 3c
       0.088964395 0.08679893 0.024197413 0.029239222
000300 fb 6b ba 3c 63 dc a9 3c bb d4 2a 3d 51 17 81 3c
       0.022756567 0.020734971 0.04170678 0.015758188
000310 03 9a 5d bc 31 f5 de bc aa cc b4 bc 8f bd 3d bd
       -0.013525489 -0.027216526 -0.022070248 -0.046323355
000320 7a 6c 0f bd 44 36 d8 3c 8d d1 e9 3c 63 14 ff 3c
       -0.03501556 0.026393063 0.028542304 0.03113765
000330 59 b8 14 3d 35 03 79 3d 0f 65 ec 3c 75 bd af 3c
       0.03630862 0.060794074 0.028856782 0.021452645
000340 f1 26 c1 ba 9d 81 d1 bc 3d 6d 50 bd 3a 17 62 3d
       -0.0014736337 -0.0255745 -0.050885428 0.05519793
000350 8a 94 c8 3c bd 98 99 bd ec f1 94 bd f9 ec f3 bc
       0.024484891 -0.07499836 -0.072727054 -0.029776083
000360 83 f3 41 bd 8d 65 aa 3b 7e af c7 b9 92 7b 63 bc
       -0.04735137 0.005200094 -0.0003808699 -0.013884442
000370 b8 c3 09 bd 55 56 c9 bc 07 5b ac bd 7a 9a 33 bd
       -0.033633918 -0.0245773 -0.084157996 -0.043848492
000380 72 5d 52 bc 77 61 81 ba d9 12 83 3b 84 03 a9 bb
       -0.012839662 -0.0009870966 0.0040000496 -0.00515789
000390 6f 41 e6 3b ad c5 c0 3b e6 bc 91 3c 30 51 02 3b
       0.0070268433 0.00588294 0.01779027 0.0019884817
0003a0 e6 1d e9 3c aa 5d a3 3b 38 0b 64 bc 9f 47 c3 3c
       0.02845664 0.004985531 -0.01391869 0.023837863
0003b0 68 56 82 3c 78 3c 23 3b dc 9a 1f bc 96 bd ea bc
       0.015910342 0.0024907868 -0.009741511 -0.028654855
0003c0 59 31 1a bc 52 05 98 bb 97 4a 08 bc 14 85 b3 bc
       -0.009411179 -0.004639306 -0.008318565 -0.021914043
0003d0 28 43 a7 bc 7d cf 99 bb 2c 7d 6e bc 86 24 ba bc
       -0.020417765 -0.004693924 -0.0145562105 -0.022722494
0003e0 5e 30 c8 3a 26 fa 95 3b 50 0b af 3c bd 39 54 ba
       0.0015273204 0.004576939 0.021367699 -0.0008095762
0003f0 08 c2 df 3a 58 2e 85 3b d2 f0 c6 3a d5 45 0e bb
       0.0017071376 0.0040643625 0.0015177971 -0.0021709104

bias f4 [12]
000000 43 21 82 bd bd 0f e1 bd 22 c3 19 be ab e6 62 bd
       -0.063540004 -0.1098933 -0.15015844 -0.055395763
000010 ca 2d 81 bd bf 54 d5 bd 2e e1 ae bd 28 ea a0 bd
       -0.06307562 -0.10416555 -0.08539043 -0.07857162
000020 18 6c f2 bc 9b 98 07 be e4 49 45 3e b4 f8 71 bd
       -0.029592559 -0.13241808 0.19266468 -0.059075072
